* Data preprocessing
train dataset:
Found 5000 files belonging to 3 classes.
Using 4000 files for training.
Using 1000 files for validation.
test dataset:
Found 3838 files belonging to 3 classes.
* Training basic_model for 15 epochs
Model: "sequential"
_________________________________________________________________
 Layer (type)                Output Shape              Param #   
=================================================================
 rescaling (Rescaling)       (None, 150, 150, 3)       0         
                                                                 
 conv2d (Conv2D)             (None, 150, 150, 32)      896       
                                                                 
 max_pooling2d (MaxPooling2  (None, 75, 75, 32)        0         
 D)                                                              
                                                                 
 conv2d_1 (Conv2D)           (None, 75, 75, 64)        18496     
                                                                 
 max_pooling2d_1 (MaxPoolin  (None, 37, 37, 64)        0         
 g2D)                                                            
                                                                 
 conv2d_2 (Conv2D)           (None, 37, 37, 128)       73856     
                                                                 
 max_pooling2d_2 (MaxPoolin  (None, 18, 18, 128)       0         
 g2D)                                                            
                                                                 
 flatten (Flatten)           (None, 41472)             0         
                                                                 
 dense (Dense)               (None, 128)               5308544   
                                                                 
 dropout (Dropout)           (None, 128)               0         
                                                                 
 dense_1 (Dense)             (None, 3)                 387       
                                                                 
=================================================================
Total params: 5402179 (20.61 MB)
Trainable params: 5402179 (20.61 MB)
Non-trainable params: 0 (0.00 Byte)
_________________________________________________________________
Epoch 1/15

 1/32 [..............................] - ETA: 1:04 - loss: 1.0966 - accuracy: 0.3047
…
